checkpoints/beat_cls_layer.pth (torch, 10818 bytes, 2 tensors)

weight f4 [2, 1024]
-0.010731581 0.021070784 0.0094744675 0.041376114 0.0010312471 0.0076262974 0.4078128 -0.011207779
0.0030576573 -0.026435124 -0.07526511 -0.01772962 0.044787508 0.0065101776 -0.046797458 -0.00727724
0.037706163 -0.008325301 -0.0047037723 -0.08013769 0.020053618 -0.030723616 -0.011222995 0.042518847
0.03533947 -0.010063137 -0.004510824 0.0089730965 0.065180875 -0.00785705 0.03980348 -0.020899864
-0.0150142545 0.008072345 0.0052600345 -0.00666499 0.0046888785 -0.011236471 0.0394654 0.06316696
-0.032944154 -0.11836366 0.029617999 -0.03314878 -0.01622581 -0.012749402 0.027175153 0.06062927
-0.003287559 -0.041279793 0.034628592 -0.033700977 -0.014801884 0.0295858 0.021628648 -0.01303627
0.06715515 0.00043511103 0.037703313 0.012191429 0.13669357 -0.005377795 -0.005570363 0.028863596
-0.009615548 0.092048906 0.011850432 -0.027749298 0.47246364 0.018672043 -0.010135519 0.018461559
-0.022370514 -0.01691334 0.011576578 0.029245976 0.06711336 0.017879825 0.021453502 -0.02046143
0.0011814679 0.032319196 -0.10223991 0.07598758 0.028467475 -0.009202599 0.119772084 -0.022198472
0.024218539 0.03315005 -0.028222892 -5.7045618e-05 -0.032221925 -0.03961875 -0.037781656 0.006343034
0.06360397 0.04864338 0.07273322 0.0007801529 0.036118418 -0.03167755 -0.036475744 0.12541287
0.08690488 0.007978286 0.00918939 0.17105764 -0.011870924 0.015376312 -0.019214699 -0.028270267
-0.011727914 0.012547756 -0.013513667 0.0041557434 0.027909383 -0.025117965 0.012612274 -0.0069153886
-0.017115233 0.09261772 -0.021418283 -0.033602774 0.028173193 -0.014950356 -0.042801537 0.009675076
-0.019564478 0.006480033 -0.0087542 0.002971453 -0.020132381 0.021766603 0.08239086 0.037253853
-0.016798595 0.029202797 0.020118464 0.010811222 0.036116436 -0.016598966 -0.021650303 0.046871122
0.010025109 -0.023173004 0.09966047 -0.0258336 0.007310299 -0.0033639323 0.023608115 -0.053559348
0.01761307 -0.05446768 0.012964789 -0.006521127 -0.011597175 0.005276575 0.0012567221 0.09756709
0.050046466 0.021837883 -0.03967461 0.0042308704 0.065625995 0.026803501 0.0077303867 0.04239858
0.00015464146 0.01968085 -0.038325816 0.0067477566 0.03208089 -0.029923635 -0.009218768 -0.013580904
-0.23477753 -0.005498958 -0.034309894 -0.030645428 0.019543473 -0.029913051 -0.021751996 0.023850102
-0.035351273 -0.034134287 0.008554738 0.0015460479 -0.024460196 0.00025240408 0.016091086 0.009811799
0.03180675 -0.04888468 2.5216139e-05 -0.118443795 0.0044512893 0.020593187 0.026937962 -0.036160365
-0.0087844 0.0013226419 0.062031657 -0.13481046 -0.0063781505 -0.014591409 0.008230947 0.0072271996
-0.067486696 0.035731684 -0.06487461 0.016774528 -0.014403019 0.06851561 -0.02213925 -0.117058195
-0.0054237046 0.025617186 0.013615925 0.04416864 -0.012143408 0.24249819 0.03289783 0.05894322
-0.018942252 0.01577993 0.007302082 0.053780004 0.0032569116 0.02773517 -0.015125018 0.02073757
-0.0071809213 0.058303323 -0.011218413 -0.009552903 0.01603551 0.031826206 0.019446295 -0.0011098188
0.014952846 0.019628122 0.0855722 -0.0058241636 0.010665806 0.033289142 0.10376803 -0.058847766
0.0032257389 -0.027024066 -0.03366576 -0.0038110053 0.0048114564 -0.03729668 -0.045018554 -0.019161895
00000000: 83d3 2fbc a39c ac3c cc3a 1b3c 007a 293d
00000010: e92a 873a 05e6 f93b d7cc d03e d5a0 37bc
00000020: fa62 483b 798e d8bc 9824 9abd b53d 91bc
00000030: 1b73 373d 5453 d53b b1ae 3fbd ea75 eebb
00000040: c771 1a3d d866 08bc 1a22 9abb 3b1f a4bd
00000050: 7c47 a43c 18b0 fbbc a7e0 37bc 3e28 2e3d
00000060: 1fc0 103d dbdf 24bc 89cf 93bb e503 133c
00000070: 8d7d 853d dbba 00bc f908 233d 3136 abbc
00000080: 59fe 75bc de41 043c 5e5c ac3b fd65 dabb
00000090: 2aa5 993b 2d19 38bc 79a6 213d ae5d 813d
000000a0: 73f0 06bd a668 f2bd 72a1 f23c 04c7 07bd
000000b0: fdeb 84bc dee2 50bc 6d9e de3c 6656 783d
000000c0: 1674 57bb 0015 29bd b6d6 0d3d 090a 0abd
000000d0: 9a83 72bc eb5d f23c 902e b13c 1496 55bc
000000e0: a488 893d 9d1f e439 ca6e 1a3d 8fbe 473c
000000f0: 66f9 0b3e 3738 b0bb 9787 b6bb 5973 ec3c
00000100: 888a 1dbc 2384 bc3d 5028 423c 7f52 e3bc
00000110: c1e6 f13e 1df6 983c 730f 26bc b23c 973c
00000120: 5e42 b7bc d88d 8abc b0ab 3d3c 4295 ef3c
00000130: bb72 893d b678 923c 41bf af3c bb9e a7bc
00000140: 7cdb 9a3a 2261 043d 2863 d1bd 609f 9b3d
00000150: 9f34 e93c 7fc6 16bc 114b f53d 92d9 b5bc
00000160: f565 c63c 59c8 073d b233 e7bc 4444 6fb8
00000170: 23fb 03bd 4547 22bd f0c0 1abd 3ad9 cf3b
00000180: cc42 823d 483e 473d 28f5 943d 2d83 4c3a
00000190: e8f0 133d 52c0 01bd 9767 15bd 3b6c 003e
000001a0: 30fb b13d 5bb7 023c 188f 163c bc29 2f3e
000001b0: 447e 42bc edec 7b3c 2568 9dbc 0c97 e7bc
000001c0: 7026 40bc 1a95 4d3c 6d68 5dbc e72c 883b
000001d0: 38a2 e43c 31c4 cdbc b6a3 4e3c 7c9a e2bb
000001e0: 3f35 8cbc 5cae bd3d 6575 afbc 10a3 09bd
000001f0: 78cb e63c 57f2 74bc aa50 2fbd 3684 1e3c
00000200: af45 a0bc 7556 d43b c76d 0fbc b5bc 423b
00000210: aaec a4bc e04f b23c 8abc a83d 7f97 183d
00000220: 359d 89bc b43a ef3c 7acf a43c 8d21 313c
00000230: d4ee 133d 8efa 87bc fa5b b1bc effb 3f3d
00000240: 5b40 243c 50d5 bdbc ca1a cc3d fca0 d3bc
00000250: 3c8b ef3b 6b75 5cbb ce65 c13c 0c61 5bbd
00000260: 4949 903c 8119 5fbd 446a 543c 2eaf d5bb
00000270: 1402 3ebc 1fe7 ac3b 99b8 a43a 41d1 c73d
00000280: 86fd 4c3d 5ce5 b23c d881 22bd 1da3 8a3b
00000290: ec66 863d 0493 db3c 2f4f fd3b 22aa 2d3d
000002a0: 4027 2239 bc39 a13c 88fb 1cbd 491c dd3b
000002b0: 4067 033d 6922 f5bc 510a 17bc 7182 5ebc
000002c0: 8569 70be 9a30 b4bb 8888 0cbd 1f0c fbbc
000002d0: a219 a03c 370c f5bc 3e31 b2bc 4a61 c33c
000002e0: 7fcc 10bd 65d0 0bbd 2c29 0c3c c2a4 ca3a
000002f0: c060 c8bc 1a55 8439 74d1 833c abc1 203c
00000300: cb47 023d 4d3b 48bd 3f87 d337 a992 f2bd
00000310: 1fdc 913b 0bb3 a83c 00ad dc3c e41c 14bd
00000320: 72ec 0fbc 7f5c ad3a e814 7e3d c10b 0abe
00000330: ceff d0bb ce10 6fbc 18db 063c 25d2 ec3b
00000340: 7736 8abd 635b 123d fbdc 84bd bc6a 893c
00000350: a4fa 6bbc ea51 8c3d 5f5d b5bc 35bc efbd
00000360: 55b9 b1bb 22db d13c 5415 5f3c 2dea 343d
00000370: 25f5 46bc 7251 783e e0bf 063d 726e 713d
00000380: c82c 9bbc e944 813c 4e46 ef3b 6c48 5c3d
00000390: e971 553b de34 e33c ecce 77bc d6e1 a93c
000003a0: ef4d ebbb 77cf 6e3d 6fcd 37bc c783 1cbc
000003b0: e75c 833c 325c 023d d64d 9f3c 5777 91ba
000003c0: c8fc 743c 28cb a03c 7a40 af3d a0d8 bebb
000003d0: a2bf 2e3c 325a 083d 5584 d43d 5b0a 71bd
000003e0: eb66 533b 9361 ddbc 1ce5 09bd 0fc2 79bb
000003f0: 6ca9 9d3b 67c4 18bd 6065 38bd 68f9 9cbc

bias f4 [2]
-0.25127584 0.20468995
00000000: 3aa7 80be 3e9a 513e
