checkpoints/ln_cls_layer.pth (torch, 10806 bytes, 2 tensors)

weight f4 [2, 1024]
000000 e9 30 65 3c cd 20 96 3b bd 29 be ba 3d 9d 08 3c
       0.013988712 0.004581547 -0.0014508289 0.00833827
000010 fc a1 b2 bb ca 91 69 bc 98 e2 e4 3a 31 96 83 3b
       -0.005451439 -0.01425595 0.001746255 0.004015707
000020 ac 92 ba 3b ab 96 9f 3c 2c f9 e0 3b 27 ad a5 bc
       0.005693754 0.019481024 0.006865641 -0.020224167
000030 41 d3 9e bc c6 8b 58 3c 1b 83 8b 3a fe b2 08 bb
       -0.019387843 0.013216918 0.0010643931 -0.002085864
000040 ef 82 32 39 2e ac 26 3c 9d 21 a1 bc 5a 23 83 3c
       0.0001702418 0.010172887 -0.019669348 0.016008068
000050 8e 80 4f 3b ab ad f1 3c cb 70 91 bb 8b 39 1f 3c
       0.0031662318 0.029501757 -0.004438495 0.009718309
000060 e7 19 60 bc e3 ac 91 3b 7a 3e 10 3b 57 21 5f bc
       -0.013678051 0.0044456585 0.0022009895 -0.013618789
000070 c1 ae 80 bc 41 4e b3 bc 88 6d d5 3b 8d 0b 24 3d
       -0.01570833 -0.0218879 0.0065133013 0.04005008
000080 fc a5 90 bc 18 5a 87 3c 9c ee 10 3c 70 3d 83 3c
       -0.017657273 0.016522452 0.008845951 0.016020507
000090 10 fd d4 bc dc 27 2f 3d ed 87 32 3c ff 7b c7 3b
       -0.025999576 0.042762622 0.010896665 0.0060877795
0000a0 bc 9d 56 3c f9 a6 a2 3c 06 c7 8f ba 68 7b 57 3c
       0.01309913 0.01985501 -0.0010969348 0.013151981
0000b0 df fc 92 bc 8f 64 ab 39 c8 e6 2e bb 78 7b e4 3b
       -0.017942844 0.00032690584 -0.002668785 0.0069727264
0000c0 7c af 01 bc ae 3a e8 3b b7 01 60 3c bd 8b 90 3c
       -0.007915374 0.0070870733 0.013672284 0.017644757
0000d0 9a 2e bb bc 4a 79 d4 bc 78 27 c8 bc f6 1c e5 bc
       -0.02284937 -0.025936741 -0.024432883 -0.027967911
0000e0 48 e8 bb bc 99 b3 3f bc 3f b2 ae 3b 6b 15 91 bc
       -0.022937909 -0.011700534 0.005331307 -0.017710408
0000f0 c7 78 23 bc 6e 54 32 bc 5c 85 2f 3d 30 d3 72 bc
       -0.009977526 -0.010884387 0.04285179 -0.014820859
000100 42 cc 4e 3d 87 77 a9 3c 53 be af 3c f2 a9 5a bc
       0.050487764 0.020686878 0.021453058 -0.013346182
000110 8f b2 98 bb d8 f8 e4 3b b0 ac 84 bc 13 3b 12 3c
       -0.0046599577 0.0069876723 -0.016195625 0.008925217
000120 fe a6 a2 bb 3e d8 18 3c 2f c8 58 3c 66 21 54 3c
       -0.0049637547 0.0093289 0.013231321 0.012947416
000130 5c ac 30 bc 55 5c d7 bc 58 0c ae 3c 78 d7 b9 3c
       -0.010783281 -0.026289145 0.02124612 0.022685751
000140 59 e1 8f bb a2 61 f3 bc 7b f2 47 bb fa 7a 9d bc
       -0.004390877 -0.02970964 -0.003050952 -0.019223679
000150 4d 3d e3 bb 46 54 20 3c 8f bd 79 bc 21 6e 9b 3b
       -0.006934798 0.009785717 -0.015242948 0.004743353
000160 ec be 45 bb 08 e8 02 3c 1e 78 72 3c 83 f3 e8 3c
       -0.0030173613 0.007989891 0.014799146 0.028436428
000170 49 1a a8 3b a5 41 88 bc 7c f8 4e bc 69 a8 b4 bb
       0.0051300866 -0.016632864 -0.0126324855 -0.00551324
000180 c1 1e b6 ba cd 0c 8e bc e3 6b e5 bc a4 a3 ed bb
       -0.0013894663 -0.017340088 -0.028005546 -0.0072521735
000190 90 29 e1 3c 3c b8 2d 3b 08 e7 66 3c d4 89 6d 3c
       0.027485639 0.0026507517 0.014093168 0.014498193
0001a0 9c 71 29 bc e9 25 22 bc 5f ea 3e 3c 52 bf b4 bc
       -0.010342028 -0.009896734 0.011652558 -0.022063885
0001b0 14 d9 aa 3c ca 7e 9d 3a b8 b3 33 bb fd 57 a1 ba
       0.020855464 0.0012015935 -0.0027420353 -0.0012309548
0001c0 21 7c c4 3b 28 89 d8 3c b6 5d 4b 3c 2c c6 1d 3c
       0.0059962426 0.026432589 0.012412479 0.009629767
0001d0 f1 aa 7d bc f5 8f a9 bc 89 c0 a4 3b 11 1e 46 3b
       -0.01548265 -0.020698527 0.005027835 0.0030230323
0001e0 19 1e ba 3b 76 fd 98 3c 55 c3 06 3c 65 7b 51 3c
       0.0056798575 0.018675547 0.008225282 0.012785767
0001f0 35 9e 31 3c 10 e1 10 3c 8a 70 26 bc 0b d6 c0 bc
       0.010840942 0.008842722 -0.010158667 -0.023539564
000200 cc 84 1f bb 2f b5 68 bc c4 ff c1 3c 27 fa 4f 3c
       -0.0024340628 -0.014203354 0.023681529 0.012693918
000210 bb 11 a8 bc 4b 44 be bc 0c 4e 32 bc 21 1e af ba
       -0.020516267 -0.023225924 -0.010882866 -0.001336042
000220 b0 02 5b bc ef 54 82 bc 94 e1 b8 bb 4d ae a4 3c
       -0.01336734 -0.01590964 -0.0056421254 0.020102644
000230 4e d3 df 3b 19 c3 c4 bb 03 10 c0 bc c1 78 29 3c
       0.0068306094 -0.0060047028 -0.023445135 0.010343731
000240 35 bc 32 bc 6b 57 91 bc b6 6a 20 bc ca d3 ce 3a
       -0.01090913 -0.01774188 -0.009791067 0.0015779671
000250 08 79 56 ba 70 be 32 3c 64 18 72 bb cc ca 12 bb
       -0.0008181487 0.010909662 -0.0036940807 -0.0022398708
000260 f8 ee b9 bc bf 03 94 3c f9 8b d0 3b dc e8 b7 bb
       -0.022696957 0.018068193 0.0063643423 -0.005612476
000270 38 db 26 bd 76 f3 88 3c fd 6d 7f bc 9e b0 54 3b
       -0.040736407 0.016717654 -0.015590188 0.0032453905
000280 28 8f b3 3c b6 06 d6 bb 68 ad b2 3c 5a d2 86 bc
       0.021918848 -0.0065315617 0.021811202 -0.016457725
000290 7a e8 89 bc 1e 43 8c 3c 44 17 1c bc fe 01 a5 3c
       -0.016834486 0.017121848 -0.009527031 0.020142552
0002a0 27 5b ab bc 8d c9 18 3b a5 01 ca 3c 8b 41 98 3c
       -0.020917488 0.0023313493 0.024658987 0.01858594
0002b0 7e 91 91 bc 45 66 ee bb 20 30 98 bb 01 e0 21 bc
       -0.017769571 -0.007275375 -0.004644409 -0.009880067
0002c0 09 74 44 3c b7 6f 54 3c 3c be b8 bc a0 27 96 bb
       0.011990556 0.012966088 -0.022551648 -0.0045823604
0002d0 e3 c1 80 bb 58 e0 f7 3a 83 83 7e bc be 8d b6 bc
       -0.003929363 0.0018911464 -0.0155342845 -0.022284385
0002e0 9e 22 9b 3c 03 7e 12 3b 0c 20 81 bc db 1f 8d 3c
       0.018937405 0.002235294 -0.015762351 0.017227104
0002f0 b7 62 12 bc ef 2d 9a 3c 6e ad 14 3d 3a 06 e0 3a
       -0.008934668 0.018820731 0.036298208 0.0017091699
000300 3b c1 62 bc cf 6b 0e bc 08 eb 96 bc c7 80 c9 ba
       -0.013840015 -0.008692696 -0.018422619 -0.0015373462
000310 46 dc b1 3c 26 a7 01 bc 3b 3b af bc 79 c5 27 bc
       0.02171148 -0.007913386 -0.021390548 -0.010239952
000320 ed fd 83 3b 61 35 31 bc 89 87 e1 bb ea 50 95 3c
       0.004028073 -0.010815949 -0.006882612 0.01822706
000330 a3 dd 65 bc 21 22 8e 3c 52 dd bd 3c 67 a5 29 bc
       -0.014029893 0.017350258 0.023176823 -0.010354376
000340 65 3e 94 3c 93 c0 9a bc 03 df 91 bb ef b4 e3 3a
       0.018096158 -0.018890655 -0.004451634 0.0017372648
000350 68 1e cf bb 10 c6 70 bc f8 0d b1 bc 13 9e ef 3c
       -0.0063207634 -0.014695659 -0.021613106 0.02925018
000360 51 35 86 3c 97 51 2f bb 1d c5 aa 3c ff 4b 2b 3c
       0.016382845 -0.0026751512 0.020845944 0.010455131
000370 03 b8 e0 3b 58 eb 9c bb a7 b9 c8 3a d8 a4 88 bc
       0.0068578734 -0.0047887973 0.0015314118 -0.016680166
000380 9e ce 08 bd 5c 91 c7 bc 94 dc 7f 3d 09 ea 5a 3c
       -0.03340017 -0.024361305 0.06246622 0.013361462
000390 97 ff 58 3c 01 c4 57 3b 8e 92 07 bd 7a 22 06 bc
       0.013244531 0.0032923224 -0.03309875 -0.008186931
0003a0 dd de 4a bc d3 ad aa 3a fd 8a 3e bc 1c 83 88 3c
       -0.012382236 0.0013021774 -0.011629817 0.01666408
0003b0 c7 74 a6 bc 68 66 8b 3c b0 ba 61 3c 5f ee 6e 3b
       -0.020319356 0.017016605 0.01377742 0.0036457998
0003c0 15 71 19 3d 65 c5 06 3c b6 8d 3d 3c ef a4 91 3c
       0.03746136 0.008225773 0.011569431 0.017778842
0003d0 ff 92 78 3c cd 49 a1 3c 2b 8c f4 3a 94 9d f9 ba
       0.015171765 0.019688511 0.0018657496 -0.0019044154
0003e0 0c f0 2e 3c d7 28 f7 3c 37 dc 17 3c f4 37 a1 3b
       0.010677349 0.030170841 0.009268812 0.00492
0003f0 fb 73 22 bc 3c 16 ca b9 8d 45 f0 3b 4c 41 c1 3a
       -0.009915347 -0.00038545008 0.00733251 0.0014744191

bias f4 [2]
000000 21 9d 18 3c fc d5 90 bc
       0.009314806 -0.01768016
